Visual/result/best_model.pkl (torch, 659999 bytes, 104 tensors)

weight_ih_l0 f4 [10, 1]
0	0x3bd4e9c0	0.0064975917
1	0x3df94840	0.12171984
2	0x3e87c6b9	0.265188
3	0xbe1e6351	-0.15467574
4	0xbe6c0bbf	-0.23051356
5	0xbda8ee10	-0.08248532
6	0xbdc4905c	-0.09597847
7	0xbda41572	-0.08011903
8	0xbe3cb875	-0.1842974
9	0x3e44d41e	0.19221541

weight_hh_l0 f4 [10, 10]
0	0xbe4137e9	-0.18868984
1	0x3e371794	0.17880088
2	0x3cda5ca0	0.026655495
3	0x3da72100	0.08160591
4	0xbe5366ba	-0.20644656
5	0x3e9b270d	0.3030323
6	0x3e9a7ef3	0.3017498
7	0x3e169e8c	0.14708918
8	0xbe847a55	-0.25874582
9	0x3c9c7fc0	0.019103885
10	0x3e95da33	0.29268035
11	0x3e4e74ce	0.20161745
12	0xbc49d960	-0.012319893
13	0xbe599b50	-0.21250653
14	0xbe817129	-0.25281647
15	0xbe20b97b	-0.15695755
16	0x3e67cdce	0.22637102
17	0xbe1a3509	-0.15059294
18	0xbe41dc6b	-0.18931739
19	0xbca30070	-0.01989767
20	0xbe1bc552	-0.1521199
21	0xbe8fd54e	-0.28092426
22	0xbe087cc2	-0.13328841
23	0x3dd379a8	0.103259385
24	0xbdac9f22	-0.0842879
25	0xbe9a584a	-0.30145484
26	0xbd88de36	-0.066830084
27	0x3d575de0	0.05257976
28	0x3dfd44c0	0.12366629
29	0xbe760a46	-0.24027357
30	0xbe31d6a9	-0.17367043
31	0xbe8bc804	-0.27301037
32	0xbe80e14c	-0.25171888
33	0x3e19d472	0.15022448
34	0x3e86845b	0.26272854
35	0x3e590006	0.21191415
36	0x3e0b3d94	0.13597709
37	0x3e476fca	0.19476238
38	0x3e41c58a	0.18923011
39	0xbe9fb714	-0.31194365
40	0xbdc54c92	-0.09633745
41	0xbe99ca8b	-0.3003734
42	0xbe174622	-0.14772847
43	0xbd4d3290	-0.05009705
44	0x3d6e7558	0.058217376
45	0xbe0ffb06	-0.14060602
46	0x3e2ed744	0.17074305
47	0x3e8c6d09	0.27426937
48	0xbe682ad0	-0.22672582
49	0xbe8bd906	-0.27314013
50	0x3d4f17a8	0.05055967
51	0x3c3ee4c0	0.011651218
52	0x3e68b052	0.22723511
53	0xbe4650bf	-0.1936674
54	0xbd3b6bf0	-0.045757234
55	0xbd568160	-0.052369475
56	0xbe997c88	-0.29977822
57	0xbe69e16b	-0.22839896
58	0x3cc36a10	0.023854285
59	0x3e1e0632	0.15432051
60	0x3d02aeb0	0.031904876
61	0xbd1685c0	-0.036748648
62	0xbcefc760	-0.029269874
63	0xbe11d1e1	-0.14240219
64	0xbe526922	-0.20547917
65	0xbe14a5b6	-0.14516339
66	0x3e6d2566	0.23158798
67	0x3e11d5b6	0.1424168
68	0x3e47f11e	0.19525573
69	0x3d81b1b0	0.06332719
70	0x3e937521	0.288003
71	0x3d5eca90	0.054392397
72	0x3e1b7cf8	0.1518439
73	0xbe4edac2	-0.20200637
74	0x3e9f9371	0.31167176
75	0xbe06759c	-0.13130802
76	0x3e6727ea	0.2257382
77	0x3e6a197a	0.22861281
78	0xbe0ad67b	-0.1355838
79	0xbe22bc27	-0.15892087
80	0xbe8e1803	-0.27752694
81	0x3c830630	0.015994161
82	0x3e6a0f66	0.22857437
83	0xbc8a6f70	-0.01689884
84	0xbd14f8b0	-0.03636998
85	0x3e9ce045	0.30639854
86	0xbe456dec	-0.19280213
87	0x3e181458	0.1485151
88	0x3e12a688	0.14321339
89	0x3d572d58	0.052533478
90	0xb9737800	-0.0002321899
91	0xbe276dbd	-0.16350456
92	0xbe15d71c	-0.14632839
93	0xbe40696f	-0.1879022
94	0x3e57b5d2	0.21065453
95	0x3e8cade9	0.27476433
96	0x3dacccfc	0.08437535
97	0x3e18c4ec	0.1491887
98	0x3b6c7e80	0.0036086142
99	0xbe772bb2	-0.24137762

weight_ih_l1 f4 [10, 10]
0	0x3e7bed86	0.24602327
1	0x3dd8d168	0.10586816
2	0x3e90f547	0.28312132
3	0xbd626630	-0.055273235
4	0xbe6b2364	-0.22962719
5	0x3e362f72	0.17791536
6	0x3e08c48c	0.13356227
7	0x3c0d3040	0.008617461
8	0xbe11f5e6	-0.14253959
9	0xbe43520d	-0.19074269
10	0xbcead020	-0.028663695
11	0xbe65ab42	-0.22428611
12	0x3e34cd84	0.17656523
13	0xbd56b490	-0.05241829
14	0x3e1e2cfc	0.15446848
15	0x3d12d030	0.035843074
16	0xbbd8b700	-0.006613612
17	0xbe0fc896	-0.14041361
18	0xbd268160	-0.040650725
19	0xbe170447	-0.14747725
20	0xbe2e8f3e	-0.1704683
21	0x3e8fd045	0.28088585
22	0x3c3bf000	0.011470795
23	0xbe97855a	-0.29593927
24	0xbe9aef89	-0.30260876
25	0xbe3eedbf	-0.1864538
26	0x3d094aa8	0.033518463
27	0xbdcc5f36	-0.099790975
28	0xbd044cf8	-0.032299966
29	0x3e7075fa	0.23482504
30	0xbe619433	-0.2202919
31	0xbe3255af	-0.17415498
32	0xbe756b4b	-0.2396671
33	0xbe1dff48	-0.15429413
34	0x3e67e68a	0.22646537
35	0xbe97e78a	-0.29668838
36	0xbe2b22b3	-0.16712455
37	0xbde6881a	-0.11256428
38	0x3e247f72	0.16064242
39	0xbe982425	-0.29715076
40	0x3e9aa4af	0.3020377
41	0xbd951462	-0.07279278
42	0x3e89c465	0.2690765
43	0xbe9a22df	-0.3010473
44	0x3de1cc28	0.11025268
45	0x3e0f7d20	0.14012575
46	0x3e1ad13e	0.15118882
47	0x3e8094e9	0.2511361
48	0xbda55e5c	-0.08074638
49	0xbdeb1466	-0.114785
50	0xbbb16680	-0.0054138303
51	0xbd8ec5a4	-0.06971291
52	0x3d31d990	0.043420374
53	0x3e4d15a2	0.20027784
54	0x3db9a3f0	0.09064472
55	0x3e2874b8	0.16450775
56	0xbe83c65f	-0.25737283
57	0xbe0b62ad	-0.1361186
58	0xbe167eac	-0.14696759
59	0xbe80e59a	-0.25175172
60	0xbc961150	-0.018318802
61	0x3da60f54	0.08108392
62	0x3e0d8336	0.13819584
63	0x3e6f7062	0.23382714
64	0x3d902824	0.07038906
65	0x3e8ba08f	0.27270934
66	0x3d95f2cc	0.073217005
67	0xbe626026	-0.2210699
68	0x3d3fa528	0.046788365
69	0xbe096a28	-0.13419402
70	0xbe43c234	-0.19117051
71	0xbe037f11	-0.1284144
72	0x3df30488	0.11866099
73	0x3e7e3402	0.24824527
74	0xbe91f09f	-0.28503892
75	0xbdb59d26	-0.08867864
76	0xbe7ccf36	-0.2468842
77	0x3e1861c2	0.14881042
78	0xbe8ba273	-0.27272376
79	0xbe0e4141	-0.1389208
80	0x3e49ff8e	0.19726393
81	0x3df82880	0.121171
82	0x3e618a6e	0.22025463
83	0xbe035605	-0.12825783
84	0xbe24050a	-0.16017547
85	0xbe2e176e	-0.17001125
86	0xbe287137	-0.16449438
87	0xbbce3f00	-0.0062941313
88	0x3e78288e	0.2423422
89	0xbda5c3fc	-0.08094022
90	0xbd3914d0	-0.045185864
91	0x3d5f1640	0.05446458
92	0x3e5c0636	0.21486744
93	0xbe9f15a6	-0.31071204
94	0x3e5bd79a	0.21468964
95	0x3e9c4c05	0.30526748
96	0xbe5460a0	-0.20739985
97	0x3d5d8038	0.054077357
98	0x3d6e6ca8	0.05820909
99	0xbdc26f98	-0.09493941

weight_hh_l1 f4 [10, 10]
0	0xbd93060a	-0.07178886
1	0xbe9d6c5f	-0.30746743
2	0xbd92151e	-0.07132934
3	0x3dac49b4	0.08412495
4	0xbe7b44b8	-0.24537933
5	0x3e2e10e6	0.16998634
6	0xbd397aa8	-0.04528299
7	0x3e926dbb	0.28599343
8	0xbe5de49b	-0.21669237
9	0x3c7c2080	0.015388608
10	0xbe553b88	-0.2082349
11	0xbe898216	-0.2685706
12	0xbe46e204	-0.19422156
13	0x3e542dae	0.2072055
14	0xbe551388	-0.20808232
15	0x398bc000	0.00026655197
16	0xbe1d5635	-0.15364917
17	0xbe1bb59b	-0.15205996
18	0xbe99a4a4	-0.30008423
19	0xbe5eabb8	-0.21745193
20	0xbdd75a3e	-0.10515259
21	0x3e76a316	0.2408565
22	0xbd3cb060	-0.04606664
23	0x3db69058	0.0891425
24	0x3d3576b0	0.044302642
25	0x3e8b567b	0.27214417
26	0xbe95a850	-0.29229975
27	0xbb8a59c0	-0.004222125
28	0xbe1e8fb5	-0.15484507
29	0x3d3eaf70	0.04655403
30	0xbde2c3f8	-0.11072534
31	0xbe725b44	-0.23667628
32	0xbe46bc0e	-0.19407675
33	0x3e785cb2	0.2425411
34	0x3d25d3b8	0.040485114
35	0x3e3bcb54	0.18339282
36	0xbb654400	-0.0034983158
37	0x3e537722	0.20650914
38	0xbd8b4b3a	-0.06801458
39	0x3d90e0b8	0.07074112
40	0x3e942c2b	0.28939947
41	0xbe0f3e8b	-0.13988702
42	0x3e1abc80	0.1511097
43	0xbdffd136	-0.12491076
44	0xbe344e16	-0.17607912
45	0xbea0edd8	-0.3143146
46	0xbd3caad0	-0.046061337
47	0xbd34f738	-0.04418108
48	0x3e45b6a2	0.1930795
49	0x3dec7e80	0.115475655
50	0xbe901d64	-0.28147423
51	0x3e8f596b	0.27997908
52	0xbb744d80	-0.003727764
53	0x3dbc15d0	0.09183848
54	0xbe91fba6	-0.28512305
55	0xbe4f541a	-0.20246926
56	0xbe893cbd	-0.26804152
57	0x3e447a9e	0.191874
58	0xbe40fe78	-0.18847072
59	0xbe1a5c44	-0.15074259
60	0xbd701cd0	-0.058621228
61	0x3dc7db24	0.09758595
62	0x3e0eee66	0.1395813
63	0x3dd44c10	0.1036607
64	0xbe1a1a67	-0.15049134
65	0x3e038e68	0.12847292
66	0x3e1193a2	0.14216474
67	0x3e4e053e	0.20119187
68	0x3e101abc	0.14072698
69	0xbea0d448	-0.31411958
70	0x3e8ad153	0.27112827
71	0x3d011de0	0.03152263
72	0xbe8e2258	-0.27760577
73	0x3e801b77	0.25020954
74	0x3d4854f0	0.048909128
75	0x3d8b2998	0.06795043
76	0x3ca83280	0.020531893
77	0xbdef21aa	-0.11676343
78	0xbdb1b8b2	-0.08677806
79	0xbe9a4abf	-0.30135152
80	0x3dd3540c	0.10318765
81	0xbe19f525	-0.15034921
82	0xbdd433be	-0.103614315
83	0xbe885f25	-0.2663509
84	0x3e8ac4d1	0.27103284
85	0x3dbdcba0	0.09267354
86	0xbe493d8c	-0.19652385
87	0xbe82a014	-0.25512755
88	0xbe56c5e4	-0.20973927
89	0xbe06fc6e	-0.13182232
90	0xbc6a7ae0	-0.014311522
91	0xbe5f1286	-0.2178441
92	0x3e3eff66	0.18652114
93	0x3de8d6a8	0.113690674
94	0xbdc6c672	-0.09705819
95	0xbd442270	-0.047884405
96	0x3ce88bf0	0.02838704
97	0xbe21fc8f	-0.15819
98	0xbda8d936	-0.08244555
99	0xbe300f25	-0.17193277

weight_ih_l0 f4 [10, 1]
0	0x3e904357	0.28176376
1	0xbe4865b8	-0.19570053
2	0x3e9ffabd	0.31245986
3	0x3e01461e	0.12624404
4	0x3a93fc00	0.0011290312
5	0x3e7090d6	0.2349275
6	0x3e48436a	0.19556966
7	0xbd49ad08	-0.04923728
8	0xbdf97b66	-0.121817395
9	0xbda7664c	-0.081738085

weight_hh_l0 f4 [10, 10]
0	0xbe63e0c5	-0.22253712
1	0x3e88a1d3	0.26685962
2	0x3cc011a0	0.023445904
3	0xbe3c589f	-0.18393181
4	0xbe028ded	-0.12749453
5	0x3dcefeb4	0.101071745
6	0xbd48b5a0	-0.049001336
7	0x3dfe9a50	0.124317765
8	0xbda9f80e	-0.08299266
9	0x3e8289d9	0.25495794
10	0x3ce64a20	0.028111517
11	0xbe21d4e1	-0.15803863
12	0xbe955daf	-0.29173037
13	0x3da01984	0.07817367
14	0x3e85de79	0.26146296
15	0x3e5b7f02	0.21435168
16	0xbdf145d4	-0.11780897
17	0xbe1cdefb	-0.15319435
18	0xbe6e4a0e	-0.23270437
19	0x3e6e20b2	0.2325466
20	0x3e188ab8	0.14896667
21	0xbd8577c8	-0.06516987
22	0xbe5a8ec3	-0.21343522
23	0xbd2e6530	-0.04257697
24	0xbdbdfd56	-0.092768356
25	0x3e85185d	0.2599515
26	0x3e864933	0.26227722
27	0x3e57f312	0.21088818
28	0x3e4c363a	0.19942561
29	0x3d511c78	0.05105254
30	0x3d5f5128	0.054520756
31	0xbe564e2e	-0.2092826
32	0xbe9a2725	-0.3010799
33	0x3d8a347c	0.06748292
34	0x3d7fe228	0.06247154
35	0xbe9b81d9	-0.30372503
36	0x3d97dbc8	0.07414967
37	0x3e20d344	0.15705591
38	0xbd65a6b8	-0.0560672
39	0xbe1a510f	-0.15069984
40	0x3e218534	0.15773469
41	0xbde38436	-0.111092016
42	0x3e111046	0.14166364
43	0x3b2d4600	0.0026439428
44	0x3e113978	0.14182079
45	0x3d898f4c	0.06716785
46	0x3d4934b8	0.049122542
47	0xbe10f307	-0.14155208
48	0x3a5c7e00	0.00084111094
49	0x3de79fe8	0.113097966
50	0x3e323e8c	0.17406672
51	0x3db335c0	0.087504864
52	0xbd0c01c8	-0.034181386
53	0x3c2e4d20	0.010638505
54	0xbd2d5d08	-0.04232505
55	0xbc76bd20	-0.015059739
56	0xbd120e18	-0.035657972
57	0xbe6e2fa2	-0.23260358
58	0x3e3168b6	0.173251
59	0x3e6c376e	0.2306802
60	0xbe87d5df	-0.26530358
61	0xbe5ada1a	-0.21372262
62	0x3b405c80	0.002935201
63	0x3d5bc678	0.05365607
64	0xbe7a0e74	-0.24419576
65	0xbe2902e5	-0.1650501
66	0xbd541e80	-0.0517869
67	0x3e270cb2	0.16313437
68	0x3e86ce63	0.26329336
69	0xbe81ac42	-0.25326735
70	0xbe372df5	-0.17888625
71	0xbe7d94a6	-0.24763736
72	0xbe01035f	-0.12598942
73	0x3d8f8fa8	0.07009822
74	0x3dd2f440	0.10300493
75	0x3e8f5f79	0.28002527
76	0x3e71315a	0.23553982
77	0x3ddd03f4	0.107917696
78	0xbe915c2c	-0.28390634
79	0x3de330c8	0.11093289
80	0xbe89e51a	-0.26932603
81	0xbe755f7e	-0.23962209
82	0x3dbf7950	0.093493104
83	0x3d421260	0.047380805
84	0xbe626a84	-0.22110945
85	0x3de26360	0.110541105
86	0x3e8a9ff5	0.27075163
87	0x3e8e53a7	0.27798197
88	0xbdcfdbfc	-0.101493806
89	0xbe7c44ea	-0.24635664
90	0xbd430320	-0.047610402
91	0x3e111f96	0.14172205
92	0xbe8db87c	-0.27679813
93	0x3d0c8410	0.034305632
94	0x3e973aa9	0.29536942
95	0xbe6a8884	-0.22903639
96	0x3e65a512	0.2242625
97	0xbc73b2a0	-0.0148741305
98	0x3e5773be	0.21040246
99	0xbe92aaf3	-0.2864605

weight_ih_l1 f4 [10, 10]
0	0xbdeac56c	-0.114634365
1	0x3cd17420	0.025568068
2	0x3e34fb4a	0.17673984
3	0x3e634fa2	0.22198346
4	0xbdea9ce2	-0.11455704
5	0x3e775ed2	0.24157265
6	0x3e0e24e0	0.13881254
7	0x3dcabce0	0.09899306
8	0xbe9a09c9	-0.3008559
9	0xbe607e68	-0.2192322
10	0xbe31db23	-0.1736875
11	0xbdbed8ac	-0.09318671
12	0x3ceaf0b0	0.028679222
13	0xbe332d18	-0.1749767
14	0xbe834cb2	-0.2564445
15	0x3e34ed9a	0.17668763
16	0xbe29d239	-0.165841
17	0x3e458a1a	0.19290963
18	0x3c8705d0	0.016482264
19	0xbdda9ff2	-0.106750384
20	0x3dce7020	0.1007998
21	0xbe0a91e6	-0.13532218
22	0xbe2238f8	-0.15842044
23	0xbe4540d2	-0.19263008
24	0xbdcdc16e	-0.100466594
25	0x3d14a310	0.03628832
26	0xbdf6e94a	-0.12056215
27	0x3da71914	0.0815908
28	0x3ce62fb0	0.028098911
29	0x3e67c83a	0.22634974
30	0xbe9dac16	-0.30795354
31	0x3df07dc0	0.11742735
32	0xbe595383	-0.21223263
33	0xbe201140	-0.1563158
34	0xbe597ace	-0.21238253
35	0x3e9cb36f	0.30605647
36	0x3e3c2bb0	0.1837604
37	0x3e9573f3	0.29190025
38	0xbe1ab62c	-0.15108556
39	0x3e17a64c	0.14809531
40	0xbe149bd0	-0.14512563
41	0xbe51240c	-0.20423907
42	0x3db4dbec	0.08831009
43	0xbe88f3bc	-0.26748455
44	0x3db664c4	0.08905938
45	0xbe8577c8	-0.26067948
46	0x3e6b55b6	0.22981915
47	0xbd651360	-0.05592668
48	0xbdbc6acc	-0.092000574
49	0x3e3833e8	0.1798855
50	0xbd0d5340	-0.03450322
51	0x3d9cec40	0.076622486
52	0x3e63c3be	0.22242638
53	0xbdd889a4	-0.10573128
54	0xbe8e2849	-0.2776511
55	0x3e4d6706	0.20058832
56	0xbd98bd86	-0.07458024
57	0xbe00435a	-0.12525693
58	0xbc3b4b60	-0.011431545
59	0xbe34a3c6	-0.176406
60	0x3dcdd300	0.10050011
61	0x3e9ad30b	0.30239138
62	0x3df151c8	0.11783177
63	0xbca10300	-0.01965475
64	0x3e87d8b5	0.26532522
65	0xbe0bb03b	-0.13641445
66	0xbe5dd828	-0.21664488
67	0xbdd16ff2	-0.1022643
68	0xbe5b3aee	-0.21409199
69	0x3da36fa0	0.07980275
70	0x3e0966c6	0.13418111
71	0xbd5f15e8	-0.05446425
72	0xbc787d60	-0.0151666105
73	0x3e506efa	0.20354834
74	0xbcd21420	-0.025644362
75	0xbc75d5e0	-0.015004605
76	0x3e8ea2bd	0.27858534
77	0xbda2189c	-0.0791485
78	0x3d3b6308	0.04574874
79	0x3e8c98c5	0.27460304
80	0xbdc51f3c	-0.09625098
81	0x3e54d162	0.20782998
82	0xbd061e08	-0.032743484
83	0x3e159894	0.14608985
84	0xbe8b946b	-0.2726167
85	0xbe908eb0	-0.28233862
86	0xbdf1edec	-0.11812958
87	0xbe4008c0	-0.18753338
88	0x3d1437e8	0.03618613
89	0x3e4bcf9a	0.19903412
90	0x3de1681c	0.110061854
91	0x3c480c80	0.0122100115
92	0x3da317d4	0.07963529
93	0xbe6225f8	-0.22084796
94	0x3e70676a	0.2347695
95	0x3e882a6d	0.26594868
96	0x3e7a9fee	0.24475071
97	0xbe7e4319	-0.24830283
98	0x3e4bebc2	0.19914153
99	0x39ff7000	0.00048720837

weight_hh_l1 f4 [10, 10]
0	0xbe155faf	-0.14587282
1	0x3d3bd010	0.04585272
2	0x3cc60e60	0.024176776
3	0x3d162b60	0.03666246
4	0x3e0569c6	0.1302863
5	0x3e73bd92	0.23802784
6	0xbdeafc20	-0.1147387
7	0xbba94400	-0.005165577
8	0xbe80b4d2	-0.25137955
9	0x3e30ff32	0.1728485
10	0xbc8bf380	-0.017083883
11	0xbd06fab8	-0.032953948
12	0x3d9492a8	0.07254535
13	0x3e366fca	0.17816082
14	0xbdb0db8e	-0.08635627
15	0xbe80909a	-0.25110322
16	0xbd71bcf0	-0.059018075
17	0xbe471b08	-0.19443905
18	0xbdbccb10	-0.092184186
19	0x3e1b611e	0.15173766
20	0x3e2574c8	0.1615783
21	0x3e10d202	0.14142612
22	0x3e4afd22	0.19823125
23	0x3dc90530	0.098154426
24	0x3d17e690	0.037085116
25	0xbe2a7bae	-0.16648743
26	0x3e16a0b6	0.14709744
27	0x3e8bb5cf	0.27287146
28	0xbe14b734	-0.14523011
29	0xbe8c29f4	-0.27375758
30	0x3dc95868	0.09831315
31	0xbe78482c	-0.24246281
32	0x3e02d080	0.12774849
33	0xbe520826	-0.20510921
34	0xbe969b29	-0.29415253
35	0x3df0ad34	0.11751786
36	0x3d62b490	0.05534798
37	0xba9a8400	-0.0011788607
38	0xbe15fb72	-0.146467
39	0x3e8d789d	0.27631083
40	0xbe86cb58	-0.26327014
41	0xbe688de6	-0.2271038
42	0x3e888f5f	0.26671883
43	0x3e322136	0.17395481
44	0x3e26ae58	0.16277444
45	0x3e8c62cd	0.2741913
46	0xbca5c090	-0.020233423
47	0xbdc70de4	-0.09719446
48	0x3e8ee485	0.27908722
49	0x3e9c75cd	0.30558625
50	0x3e519cf6	0.20470032
51	0x3dff7224	0.124729425
52	0x3d471f08	0.048613578
53	0x3e78a5e6	0.24282035
54	0xbde0ede4	-0.10982874
55	0xbd8f7f50	-0.07006705
56	0x3e966a3d	0.29377928
57	0x3c9478c0	0.018123984
58	0xbe4b79ca	-0.19870678
59	0xbbb273c0	-0.0054459274
60	0x3e911553	0.28336582
61	0x3e80007f	0.25000378
62	0x3e53ca22	0.20682576
63	0x3e8b44e3	0.27200994
64	0x3dbd9df8	0.09258646
65	0xbe99f353	-0.30068454
66	0xbe69f91b	-0.22848932
67	0xbe08ca41	-0.13358404
68	0x3e8d9105	0.27649704
69	0xbe2e57ea	-0.17025724
70	0x3e19f26e	0.15033886
71	0x3d085950	0.0332883
72	0xbda73f9e	-0.08166431
73	0x3e5c7726	0.21529827
74	0x3e1e69da	0.15470067
75	0x3e32f64e	0.1747677
76	0x3d3040a8	0.04303041
77	0xbc446300	-0.011986494
78	0xbe068184	-0.13135344
79	0xbe81b4eb	-0.25333342
80	0xbe6a9979	-0.22910108
81	0x3e25e946	0.16202268
82	0x3e8663db	0.2624806
83	0x3db66638	0.089062154
84	0xbc489980	-0.0122436285
85	0xbe719d2c	-0.23595113
86	0x3e8c21f5	0.27369657
87	0xbcdcd6c0	-0.02695787
88	0xbea18f19	-0.31554487
89	0x3cc0f670	0.02355501
90	0xbe482514	-0.19545394
91	0xbd6e4f70	-0.058181226
92	0x3c0c46a0	0.00856176
93	0xbe5e5f94	-0.21716148
94	0x3de89644	0.11356786
95	0xbe23d73f	-0.16000079
96	0x3d6a4690	0.0571962
97	0x3d999410	0.07498944
98	0x3cbc4120	0.022980273
99	0xbe292324	-0.16517311

weight f4 [1, 10]
0	0xbe1f80ee	-0.15576527
1	0xbdb7f6c6	-0.08982615
2	0x3e1e8c9e	0.15483329
3	0x3e881e79	0.2658575
4	0xbe63c2b2	-0.22242239
5	0x3e9f105b	0.31067166
6	0x3d155438	0.03645727
7	0xbe0a5999	-0.13510741
8	0xbe3b52ea	-0.18293348
9	0xba52fc00	-0.0008048415

weight f4 [1, 10]
0	0xbe365169	-0.17804493
1	0x3e93cff3	0.2886959
2	0xbcde2d10	-0.027121097
3	0x3e9c71d7	0.30555603
4	0x3da45d50	0.080256104
5	0x3e527a52	0.20554474
6	0xbc8d9ff0	-0.017288178
7	0xbcdecc20	-0.027196944
8	0xbb2ad400	-0.0026066303
9	0xbbfe1640	-0.0077541173

weight f4 [32, 2, 3, 3]
0	0x3e51b98d	0.20480938
1	0xbe488470	-0.19581771
2	0xbe1f8562	-0.15578225
3	0x3d141444	0.03615214
4	0x3d87450a	0.06604965
5	0xbe2405c1	-0.1601782
6	0xbd6c3db8	-0.057676047
7	0xbb978e40	-0.004625112
8	0x3e4f115d	0.20221467
9	0x3e335f13	0.17516737
10	0xbdd6fdac	-0.10497603
11	0x3e53e2c3	0.20691971
12	0x3e3c2473	0.1837328
13	0xbd1ae660	-0.03781736
14	0xbdb6442a	-0.0889972
15	0x3e071dab	0.13194911
16	0xbe20d32c	-0.15705556
17	0x3d829792	0.06376566
18	0xbe3ef88c	-0.186495
19	0xbd48d4e8	-0.04903117
20	0x3e297c4b	0.1655132
21	0xbce87af0	-0.028378934
22	0xbe6b9f80	-0.23010063
23	0x3d57a494	0.05264719
24	0x3e62b609	0.22139753
25	0x3ca2f608	0.019892707
26	0x3e1115db	0.14168493
27	0x3d9c3bbe	0.076285824
28	0xbe4fc0a7	-0.20288335
29	0xbe4723e7	-0.1944729
30	0xbd2fdba8	-0.04293409
31	0x3bdeeae0	0.0068029016
32	0xbe54ffe8	-0.20800745
33	0x3e47175b	0.19442503
34	0xbde303fd	-0.11084745
35	0x3e0b5f3b	0.13610546
36	0x3e704e49	0.23467363
37	0xbe1b08d2	-0.15140083
38	0x3d7d76c4	0.06188084
39	0x3de94266	0.113896176
40	0xbcb32e08	-0.021872535
41	0xbe704439	-0.23463525
42	0xbe1fdeee	-0.15612385
43	0xbd6b7d90	-0.057492793
44	0xbe527812	-0.20553616
45	0xbe004703	-0.12527089
46	0x3ca92b38	0.020650491
47	0x3d15befc	0.03655909
48	0x3e2ada0d	0.16684742
49	0xbda45aae	-0.08025108
50	0x3ad90000	0.0016555786
51	0x3dba0aaa	0.09084065
52	0x3da3d686	0.079999015
53	0x3e23c197	0.15991817
54	0xbdb32396	-0.08747022
55	0xbe03cdbe	-0.12871453
56	0xbe1ec13c	-0.155034
57	0x3d34e2a4	0.044161454
58	0x3e17a581	0.14809228
59	0x3db9d712	0.090742245
60	0xbe1cffe6	-0.15331993
61	0xbdca690c	-0.09883317
62	0xbe61fae3	-0.22068362
63	0x3e30e527	0.17274915
64	0x3d2b1fa4	0.04177822
65	0x3df2272a	0.11823876
66	0xbe260e3a	-0.16216365
67	0xbb3b9a40	-0.0028625876
68	0xbcab4a98	-0.020909593
69	0x3b95f3e0	0.0045761913
70	0xbd277f50	-0.0408929
71	0xbddc8a92	-0.10768618
72	0xbe5ab52e	-0.21358177
73	0x3e4e1603	0.20125584
74	0x3e2ffca9	0.17186226
75	0x3dd98e0a	0.10622795
76	0x3daeb736	0.085310385
77	0x3e19e619	0.15029182
78	0x3d1c9b4c	0.03823404
79	0x3e23a89b	0.15982287
80	0xbd321084	-0.04347278
81	0x3e069e2d	0.13146277
82	0xbe4b7151	-0.19867446
83	0x3d7f8dac	0.06239097
84	0xbe07c01c	-0.13256878
85	0xbd0e5be8	-0.034755617
86	0xbe4f0adc	-0.20218986
87	0xbda67664	-0.0812805
88	0xbe24f8be	-0.16110513
89	0x3e30fc57	0.1728376
90	0x3d7f6c8c	0.062359378
91	0x3939f800	0.00017735362
92	0xbdf5dc08	-0.12004858
93	0xbe281833	-0.16415481
94	0x3dddf9f2	0.10838689
95	0x3e445d61	0.19176246
96	0x3ccf0cf8	0.025274739
97	0x3e0ac49b	0.13551562
98	0x3dcd4416	0.10022752
99	0x3e2e99cf	0.17050861
100	0xbdf14d03	-0.11782267
101	0x3e2f8881	0.17141916
102	0xbd66228c	-0.05618529
103	0xbe1b867e	-0.15188023
104	0x3e5afe75	0.2138613
105	0x3d989e16	0.074520275
106	0xbe4c3f8c	-0.19946116
107	0xbe33db08	-0.17564023
108	0x3d2edcac	0.042690918
109	0x3e010b07	0.12601863
110	0xbe509aa2	-0.20371488
111	0x3d228174	0.039674237
112	0xbe48eadc	-0.19620842
113	0xbe0aee42	-0.1356745
114	0x3d51cfa4	0.051223412
115	0xbdfc0a2b	-0.12306627
116	0xbd742c54	-0.059612587
117	0x3dfa7886	0.12230019
118	0x3e2d609d	0.16931386
119	0x3d8af70e	0.06785403
120	0x3da8069e	0.08204387
121	0xbe38f379	-0.18061627
122	0x3c93d888	0.018047586
123	0x3e4f196b	0.2022454
124	0x3e12f6e9	0.14352001
125	0x3d9dba4a	0.077015474
126	0x3e6bcc85	0.23027237
127	0xbd32d8c8	-0.04366377
128	0xbd687d4c	-0.056760117
129	0x3dda66c2	0.10664131
130	0x3e6560bf	0.22400187
131	0x3dae4dde	0.08510946
132	0x3e116087	0.14196979
133	0xbcf5d560	-0.030008972
134	0xbe0c848c	-0.13722438
135	0x3e21c095	0.1579612
136	0x3e1f9309	0.15583433
137	0xbe097cb2	-0.13426474
138	0x3e518927	0.20462476
139	0xbc952ac8	-0.018208876
140	0xbe0f5268	-0.13996279
141	0x3e0af88f	0.1357138
142	0x3e04ffa7	0.12988149
143	0x3dd37496	0.103249714
144	0xbe247041	-0.16058446
145	0xbe6713ab	-0.22566096
146	0x3bf7c520	0.007561341
147	0xbe44e2b2	-0.19227102
148	0xbe1cf779	-0.15328778
149	0x3debd012	0.11514296
150	0x3e1c410f	0.15259193
151	0xbe1167f5	-0.14199813
152	0xbd8a977e	-0.06767176
153	0xbdb3775a	-0.08762999
154	0xbc553040	-0.013011992
155	0x3d07bfe4	0.033141986
156	0x3de64dd6	0.11245315
157	0x3de36152	0.11102547
158	0xbdd250f4	-0.10269347
159	0x3e625743	0.221036
160	0x3c2bfb10	0.01049687
161	0xbe4127b4	-0.18862802
162	0x3c02f0e0	0.007991999
163	0xbe1f2a85	-0.15543564
164	0x3e0904b1	0.13380696
165	0x3e5b3ce3	0.21409945
166	0x3c2541f0	0.0100865215
167	0x3e4bd1f1	0.19904305
168	0xbe2401e1	-0.16016342
169	0xbe1d7626	-0.15377101
170	0xbe29ad41	-0.16569997
171	0x3e1ba617	0.15200077
172	0x3d70e9b4	0.058816627
173	0xbe174b4e	-0.1477482
174	0x3d84cf3a	0.06484838
175	0xbe0dc002	-0.13842776
176	0xbe6bff2e	-0.23046562
177	0x3e3f9f4b	0.18713109
178	0xbd99f75e	-0.07517885
179	0x3d779014	0.060440138
180	0x3e6ef239	0.23334588
181	0xbdc7094e	-0.097185716
182	0x3e34da41	0.17661382
183	0x3ce44cb8	0.027868614
184	0xbe005830	-0.12533641
185	0xbdf31b4c	-0.11870441
186	0xbe41dd54	-0.18932086
187	0xbd661030	-0.05616778
188	0x3a232500	0.000622347
189	0xbda55ac6	-0.08073954
190	0xbcc85090	-0.024452478
191	0xbc105cb0	-0.008811161
192	0xbdce62f2	-0.10077466
193	0x3e4fbf7f	0.20287894
194	0x3d1c96cc	0.03822975
195	0x3e0627c3	0.13101105
196	0xbd5e2c40	-0.05424142
197	0xbd1e23d0	-0.038608372
198	0x3e4a589b	0.19760363
199	0x3e23f813	0.16012602
200	0xbe301d76	-0.17198738
201	0x3d52293c	0.051308855
202	0x3dd800b2	0.105470076
203	0xbdf4b51c	-0.11948606
204	0xbd382390	-0.04495579
205	0xbe2e83c4	-0.17042452
206	0x3d96bb62	0.07359959
207	0x3e1cf563	0.15327983
208	0x3e18c5d7	0.1491922
209	0xbe4d3592	-0.20039967
210	0xbd4aa04c	-0.049469277
211	0xbe2b1f63	-0.16711192
212	0xbce8e870	-0.028431147
213	0xbdac5ae0	-0.084157705
214	0x3e57130d	0.21003361
215	0xbd82a264	-0.0637863
216	0xbe4d9e37	-0.20079885
217	0x3e3b3259	0.18280925
218	0xbe0cdd38	-0.13756263
219	0xbe6448e1	-0.22293426
220	0x3dfcf262	0.12350918
221	0xbdfc9f29	-0.12335045
222	0x3dcef95e	0.10106157
223	0xbc043280	-0.008068681
224	0xbe6dd48f	-0.23225616
225	0x3e0546cf	0.13015293
226	0xbdac5826	-0.084152505
227	0x3d89436a	0.06702311
228	0x3d9a84c6	0.07544856
229	0x3e053ea7	0.13012181
230	0x3d76fe84	0.06030132
231	0xbdc2cdbc	-0.09511897
232	0x3d994ca2	0.0748532
233	0xbcff5098	-0.03116636
234	0x3da83846	0.08213858
235	0xbe4269d8	-0.18985689
236	0xbc0fbac0	-0.008772552
237	0xbd0686fc	-0.032843575
238	0x3d6ca3dc	0.057773456
239	0x3e265429	0.16243042
240	0xbe01df98	-0.1268295
241	0xbdbf21a0	-0.09332585
242	0xbe4579b7	-0.19284712
243	0x3ce57738	0.02801095
244	0x3e575e93	0.21032171
245	0x3e6f090f	0.233433
246	0x3d17dc6c	0.037075445
247	0xbd8ccc4c	-0.06874904
248	0x3ca2c458	0.019869015
249	0xbb531080	-0.003220588
250	0x3e427f41	0.18993856
251	0xbdd52b30	-0.10408628
252	0xbd4f6efc	-0.050642952
253	0x3dccd52e	0.10001598
254	0x3e152217	0.14563785
255	0x3c8eff28	0.017455652

bias f4 [32]
0	0x3e1d1043	0.15338235
1	0x3e6be715	0.2303737
2	0xbe236428	-0.15956175
3	0xbdf64414	-0.120247036
4	0xbe351246	-0.17682752
5	0x3d35641c	0.044284925
6	0xbd7de870	-0.061989248
7	0x3c368650	0.011140421
8	0xbe555165	-0.20831831
9	0xbe22bdde	-0.15892741
10	0x3ca8cea8	0.020606354
11	0xbe25ca64	-0.16190487
12	0x3d9ed7de	0.07756017
13	0xbb763c40	-0.0037572533
14	0xbd5fd4d8	-0.054646343
15	0x3c8d18c8	0.01722373
16	0xbe374e68	-0.17901003
17	0x3dc09ea2	0.09405257
18	0x3d7a06bc	0.06104158
19	0x3e370d43	0.17876153
20	0xbd8134e4	-0.06308916
21	0xbb5c58c0	-0.0033622235
22	0x3e24405b	0.16040175
23	0xbe11153e	-0.1416826
24	0x3d4fdf2c	0.050749943
25	0x3e1da243	0.15393929
26	0xbdd9bc2e	-0.106315956
27	0xbe6e1848	-0.2325145
28	0xbdef5ef3	-0.11688032
29	0x3bd18740	0.006394297
30	0x3e476005	0.19470222
31	0xbcdf0148	-0.02722229

weight f4 [32, 8, 3, 3]
0	0x3daf5d5b	0.08562728
1	0x3ddcfec9	0.10790784
2	0xbd06cedc	-0.03291212
3	0xbdb22788	-0.08698946
4	0xbd31558a	-0.043294467
5	0x3da258a5	0.07927064
6	0x3cb5888c	0.022159837
7	0x3d0c3bca	0.034236707
8	0xbdc1a6d6	-0.094556496
9	0xbcbfe6b0	-0.02342543
10	0xbcd3bb08	-0.02584602
11	0xbd54ce9e	-0.051954858
12	0x3d1130e6	0.035447024
13	0x3de2462f	0.11048543
14	0xbdb5f339	-0.08884282
15	0xbc0bc278	-0.008530252
16	0x3d9f314f	0.07773077
17	0x3dec0955	0.115252174
18	0x3ccc049c	0.024904542
19	0x3cd231d4	0.025658526
20	0xbd5346ce	-0.051581196
21	0x3d110cfa	0.035412766
22	0xbd94cd91	-0.07265771
23	0x3ddac6db	0.1068246
24	0xbda5464c	-0.08070049
25	0xbdce0866	-0.100601956
26	0xbda3fae2	-0.080068365
27	0xbd6a09ce	-0.057138257
28	0x3d50b326	0.0509521
29	0x3cca7124	0.024712153
30	0xbd8c8412	-0.06861128
31	0xbb014d80	-0.0019730031
32	0x3db36d1f	0.087610476
33	0x3daa96dd	0.08329556
34	0xbdb91e62	-0.09038998
35	0xbd8430da	-0.0645463
36	0x3da7e5f3	0.08198156
37	0x3b830c10	0.0039992407
38	0xbcb3ce78	-0.021949038
39	0x3ca1e85c	0.019764118
40	0xbbd3f7c0	-0.006468743
41	0xbdc20557	-0.09473675
42	0xbdbec498	-0.09314841
43	0x3dbf73e9	0.0934828
44	0x3de01c83	0.10942938
45	0xbd2d3610	-0.042287886
46	0xbdb520f2	-0.088441744
47	0xbde974bd	-0.11399219
48	0x3db27a13	0.0871469
49	0x3dab0dff	0.08352279
50	0xbda4c3b7	-0.08045142
51	0x3da020f5	0.07818786
52	0xbd57fa86	-0.052729152
53	0x3dd3c621	0.103405245
54	0xbc8c29d0	-0.017109782
55	0x3d87de13	0.06634154
56	0xbd9d1842	-0.076706424
57	0x3de58ee9	0.112088986
58	0x3d9ef207	0.07761007
59	0xbd73cb25	-0.059519906
60	0x3cab3c84	0.02090288
61	0x3dcf463d	0.10120819
62	0xbc7a3e48	-0.015273638
63	0x3de6fc9d	0.11278651
64	0xbd7db3fe	-0.061939232
65	0x3d15d982	0.036584385
66	0xbd01736a	-0.031604208
67	0xbd45a1a8	-0.04824987
68	0x3c94a4b4	0.018144943
69	0x3d957eeb	0.07299598
70	0xbc681fc8	-0.0141677335
71	0xbde070e6	-0.10959034
72	0xbddde5de	-0.10834859
73	0xbd979cf8	-0.07402986
74	0xbda8edc8	-0.08248478
75	0xbdaf3fff	-0.08557128
76	0x3af7a7c0	0.0018894598
77	0xbda55250	-0.080723405
78	0x3debed83	0.11519911
79	0x3dee08f5	0.11622802
80	0xbd498136	-0.04919549
81	0xbda4f364	-0.080542356
82	0x3d0aa36e	0.033847265
83	0x3d45d1d6	0.04829582
84	0xbd93043d	-0.07178543
85	0x3dec10a1	0.11526609
86	0xbcbc241c	-0.022966437
87	0xbd96753c	-0.073465794
88	0xbdc8fa6e	-0.09813391
89	0xbde86b7e	-0.113486275
90	0x3d8da08b	0.06915387
91	0x3bfda430	0.00774052
92	0x3d87c08f	0.066285245
93	0x3ddaba45	0.10680059
94	0xbd2b335c	-0.041797027
95	0xbdbe9089	-0.09304912
96	0x3d60a09e	0.054840676
97	0xbdb2399c	-0.08702394
98	0xbd9dacbe	-0.076989636
99	0x3d9e3973	0.07725801
100	0xbd9adb28	-0.07561332
101	0x3cc4df64	0.024032302
102	0x3dc4ac0b	0.09603127
103	0xbcfe078c	-0.031009458
104	0x3dd7b90f	0.10533344
105	0xbde907d8	-0.11378449
106	0xba86b580	-0.001027748
107	0xba942140	-0.0011301413
108	0x3c2f5558	0.0107015
109	0xbd91191e	-0.07084869
110	0x3caf1364	0.02137155
111	0x3bea0e70	0.0071428344
112	0x3dc56e5d	0.09640191
113	0xbd9bde84	-0.07610801
114	0xbd72e1b2	-0.05929727
115	0xbd213728	-0.03935924
116	0x3ca2c91c	0.019871287
117	0xbda15bc8	-0.07878834
118	0x3d304c7a	0.043041684
119	0x3cf13ef4	0.029448964
120	0x3d6f5846	0.058433793
121	0xbcab02dc	-0.020875387
122	0x3d06c83a	0.032905795
123	0xbda4c54c	-0.08045444
124	0x3d43802e	0.047729664
125	0x3c68a978	0.014200561
126	0xbd370e44	-0.04469134
127	0x3c4dadf8	0.012553684
128	0x3dc2010d	0.09472857
129	0xbccc1c8c	-0.024915956
130	0xbd73d02f	-0.05952471
131	0x3db61451	0.08890594
132	0xbcb35ce4	-0.02189488
133	0x3d19601a	0.037445165
134	0xbd2988e8	-0.04139033
135	0x3cb2fce4	0.021849103
136	0x3cb01324	0.021493502
137	0x3dd94207	0.10608297
138	0xbded9cc6	-0.11602168
139	0x3da568b3	0.080766104
140	0xbd1df2ae	-0.038561516
141	0x3cc170cc	0.023613356
142	0x3df10e3b	0.11770292
143	0xbddbe869	-0.10737688
144	0xbcf55814	-0.029949225
145	0xbda91a30	-0.08256948
146	0x3d4f5332	0.05061645
147	0x3dcb2d05	0.09920696
148	0xbc9d29c8	-0.019184962
149	0xbddedfd6	-0.10882537
150	0x3d1b83b2	0.03796739
151	0xbdc8d668	-0.0980652
152	0xbd6b6263	-0.057466876
153	0xbb880740	-0.004151255
154	0x3deb994b	0.11503848
155	0x3d9ab95f	0.07554888
156	0xbda5fe76	-0.08105175
157	0xbd605440	-0.054767847
158	0xbd5ea5a4	-0.054357186
159	0xbd48fbdc	-0.049068317
160	0xbd8a7599	-0.06760711
161	0xbda9a316	-0.08283059
162	0xbdbd4362	-0.09241368
163	0x3b65ad20	0.0035045817
164	0x3ddfae2d	0.10921893
165	0x3d8113c9	0.06302602
166	0xbde28ae1	-0.11061645
167	0xb98e0600	-0.0002708882
168	0xbbf16dc0	-0.0073678195
169	0x3db0b9d7	0.08629196
170	0x3d02ec4a	0.031963624
171	0x3db703ab	0.089362465
172	0xbcc1cbe0	-0.023656785
173	0xbdde81cc	-0.108646005
174	0xbdd903c8	-0.10596424
175	0x3d49ac3a	0.049236514
176	0xbdc9d35f	-0.09854769
177	0x3d1e590a	0.038659133
178	0xbdaf1e43	-0.08550694
179	0xbd9553ac	-0.0729135
180	0xbd0924ee	-0.033482485
181	0xbde066d8	-0.10957116
182	0x3d99068d	0.074719526
183	0x3de4a121	0.111635454
184	0xbbc95f20	-0.006145373
185	0x3d8aeb0b	0.06783112
186	0x3c6f88b8	0.014619999
187	0x3db1bf83	0.08679106
188	0xbdd64c8c	-0.10463819
189	0xbdca4fb8	-0.098784864
190	0x3dc7e2a7	0.097600274
191	0x3d6d7c82	0.057980068
192	0x3c5882f8	0.013214819
193	0x3c0e9a48	0.008703776
194	0x3cc3b684	0.023890741
195	0xbbca3ea0	-0.0061720163
196	0x3dad8fcf	0.08474695
197	0xbd0df404	-0.03465654
198	0xbd89cfea	-0.067291096
199	0xbd6bf241	-0.05760408
200	0x3deb7c45	0.11498312
201	0x3dc8acad	0.0979856
202	0xbddef53a	-0.10886617
203	0x3db930e9	0.09042532
204	0xbde57b00	-0.11205101
205	0xbd8045f4	-0.062633425
206	0xbca6bcc4	-0.020353682
207	0x3dbd14e5	0.09232501
208	0x3c5000c8	0.012695499
209	0xbd3e3910	-0.046441138
210	0x3d90c5f7	0.07069009
211	0x3c3d8458	0.011567198
212	0xbdbc6931	-0.09199751
213	0x3dbaa31f	0.09113144
214	0xbde527e6	-0.11189251
215	0xbd91a10e	-0.07110797
216	0xbdccfa2a	-0.100086525
217	0x3ddcdbef	0.107841365
218	0xbd569606	-0.052389167
219	0x3dbb3059	0.09140081
220	0xbc122350	-0.008919552
221	0x3d996a91	0.07491029
222	0xbd9a758b	-0.07541951
223	0x3c9f604c	0.019455098
224	0xbd0a30f0	-0.033738077
225	0xbd27be46	-0.040952943
226	0x3dcc8c91	0.099877484
227	0x3d7cf86a	0.061760344
228	0xbd473fe2	-0.048644908
229	0x3cd13d6c	0.025541984
230	0x3d14f64a	0.036367692
231	0x3bb0dbb0	0.0053972825
232	0x3dbd1285	0.09232048
233	0xbc2259a0	-0.009909064
234	0x3dbd37f3	0.09239187
235	0x3d95c429	0.07312805
236	0xbde067f3	-0.10957327
237	0x3dbe471d	0.092909075
238	0x3c537748	0.012906857
239	0x3ddae5df	0.10688376
240	0xbd6036d6	-0.054739796
241	0x3d0faf32	0.03507919
242	0x3dcc1c89	0.0996638
243	0xbdbbce1d	-0.09170172
244	0x3d1ee1d2	0.038789578
245	0x3d281c92	0.04104287
246	0xbddb7d5f	-0.10717272
247	0xbdc8f594	-0.09812465
248	0x3c777918	0.015104555
249	0x3d4249c6	0.047433637
250	0xbcb868a0	-0.022510827
251	0xbdb3d638	-0.08781093
252	0x3d658522	0.05603517
253	0xbd82b692	-0.06382479
254	0xbde7951d	-0.11307738
255	0x3de33dcd	0.11095772

bias f4 [32]
0	0xbdcedac7	-0.10100322
1	0xbc0147c8	-0.007890649
2	0x3ced083c	0.02893459
3	0xbd389484	-0.04506351
4	0x3ddf9dcd	0.1091877
5	0x3c64b738	0.013959698
6	0x3de95797	0.113936596
7	0xbdca2971	-0.098711856
8	0xbbb5aa10	-0.0055439547
9	0xbd66d860	-0.056358695
10	0x3d955cbf	0.072930805
11	0xbdc7aed6	-0.09750144
12	0x3dd54a7f	0.104145996
13	0x3dedc8ff	0.116106026
14	0x3c376b58	0.011195026
15	0x3aa5bf00	0.0012645423
16	0x3d2c3d12	0.04205043
17	0x3cf8a134	0.030350305
18	0xbdd6b243	-0.104832195
19	0x3c6ccde8	0.014453389
20	0xbb743140	-0.00372608
21	0x3daec1a7	0.0853303
22	0xbdc0ac7a	-0.09407897
23	0xbd0e856e	-0.034795217
24	0xbdeb2815	-0.114822544
25	0x3d33631a	0.043795682
26	0x3de8405b	0.113404
27	0xbd850b42	-0.06496288
28	0x3c9de764	0.019275375
29	0x3c0f9d38	0.008765511
30	0x3bb0db20	0.0053972155
31	0xbd3643c4	-0.04449822

weight f4 [32, 10, 3, 3]
0	0xbdca35d8	-0.09873551
1	0xbd7ddd24	-0.061978474
2	0xbd26c64b	-0.04071645
3	0x3dc1793f	0.09446954
4	0xbb5381b1	-0.0032273347
5	0x3d2bb9f0	0.04192537
6	0x3d9e903b	0.077423535
7	0xbdd35fb8	-0.10320991
8	0x3c8861ad	0.016648138
9	0xbcc96ce2	-0.024588052
10	0x3db155e1	0.08658958
11	0x3cff985b	0.031200578
12	0x3d5b3fdd	0.0535277
13	0x3dc27002	0.0949402
14	0x3ba3a31b	0.004993809
15	0xbd120a27	-0.035654213
16	0x3d58d52c	0.05293767
17	0x3d3fa126	0.046784543
18	0xbde60dec	-0.11233124
19	0xbc869991	-0.016430648
20	0x3d83707a	0.064179376
21	0x3d71ce8a	0.05903486
22	0x3d86efb0	0.065886855
23	0x3db86ecd	0.090055086
24	0xbd44988e	-0.04799705
25	0xbd50b759	-0.050956104
26	0xbd10315c	-0.035203323
27	0x3b86c283	0.004112543
28	0x3dcb473e	0.09925698
29	0xbdbcab28	-0.09212333
30	0x3d9f55ff	0.07780074
31	0xbd7c756b	-0.061635416
32	0xbda85cac	-0.08220801
33	0x3d7232bb	0.05913041
34	0x3d56048d	0.052250434
35	0xbd7b7cb1	-0.061398212
36	0xbdae1c1a	-0.08501454
37	0x3db8b854	0.09019533
38	0xbcc9e3c4	-0.02464474
39	0x3d5f1438	0.05446264
40	0xbd64ba13	-0.055841517
41	0xbd84c16f	-0.06482207
42	0x3c6b51d0	0.014362767
43	0x3d663ab1	0.056208316
44	0xbc90a462	-0.017656509
45	0xbd989d37	-0.07451861
46	0x3c0e8124	0.008697782
47	0x3ce81535	0.028330425
48	0xbcb11ffa	-0.021621693
49	0xbca7e5e9	-0.020495372
50	0x3d174a33	0.036935996
51	0x3d532c29	0.051555786
52	0x3d170e26	0.036878727
53	0xbdc0db43	-0.09416821
54	0x3cf5742c	0.029962622
55	0xbb90ce40	-0.004419118
56	0xbdcee546	-0.10102324
57	0x3dfca7e2	0.123367086
58	0x3d9f2596	0.07770841
59	0x3dcb863c	0.099377126
60	0x3da84e19	0.08218021
61	0x3d4a482d	0.04938524
62	0xbd8381ad	-0.06421218
63	0x3d1912c5	0.037371416
64	0x3d26d64a	0.040731706
65	0x3cdcf791	0.026973518
66	0x3d66e5f1	0.056371633
67	0x3ccb7c0a	0.02483942
68	0xbdc1be66	-0.09460144
69	0x3ca1e3e7	0.019761993
70	0x3daa75ac	0.083232254
71	0xbdc23589	-0.09482867
72	0x3d95a592	0.07306971
73	0xbbb76afb	-0.00559747
74	0xbdca9ec6	-0.09893565
75	0x3db45dd8	0.08806962
76	0x3daf1fa9	0.085509606
77	0x3d1041f6	0.035219155
78	0x3d504fd9	0.0508574
79	0x3d306bb3	0.04307146
80	0x3c8f7f28	0.017516688
81	0xbda43681	-0.08018208
82	0x38d9556b	0.00010363277
83	0xbdd33edf	-0.10314726
84	0x3ddc3264	0.10751799
85	0x3cae5072	0.021278594
86	0xbd55c77e	-0.052192204
87	0xbdcca59c	-0.09992525
88	0xbd95c07c	-0.07312104
89	0x3c0a1bf2	0.008429514
90	0x3cb42191	0.021988662
91	0xbdb6dca1	-0.089288004
92	0x3d0dd356	0.034625374
93	0xba9e918c	-0.001209782
94	0xbd416082	-0.047211178
95	0xbd9057d5	-0.07048003
96	0x3c1b5c01	0.009482385
97	0x3db785fb	0.089611016
98	0x3c93150e	0.017954376
99	0xbd033139	-0.032029364
100	0xbd890ba6	-0.06691675
101	0x3d03fca1	0.032223348
102	0x3d4a7f45	0.04943778
103	0xbd8b3b67	-0.067984395
104	0x3c65d2c3	0.0140273
105	0xbd646b80	-0.055766582
106	0xbdb73186	-0.08944993
107	0xbdd5e603	-0.10444262
108	0x3da43c68	0.08019334
109	0xbd25c74f	-0.04047328
110	0xbd8b1de0	-0.067928076
111	0x3d8763a0	0.06610799
112	0xbdb78e10	-0.08962643
113	0xbc83395e	-0.016018566
114	0x3b25a491	0.0025275091
115	0xbd7074b9	-0.058705065
116	0x3dc5a77a	0.09651084
117	0xbbf60114	-0.0075074527
118	0x3c0ca664	0.0085845925
119	0xbd247601	-0.0401516
120	0xbdb95d59	-0.09051008
121	0x3da0e040	0.07855272
122	0x3dbd460b	0.09241875
123	0xbd052120	-0.032502294
124	0x3db56e81	0.088589676
125	0xbd7e4d64	-0.062085524
126	0xbc91aa3f	-0.017781375
127	0xbde1fed5	-0.110349335
128	0x3dbc864c	0.092053026
129	0x3c77dac7	0.015127844
130	0x3d8e8044	0.069580585
131	0x3d5c322f	0.053758796
132	0x3d668efe	0.05628871
133	0xbd39481c	-0.045234784
134	0x3d7a77bb	0.06114934
135	0xbdbf5b69	-0.09343607
136	0xbb9e96b3	-0.004839742
137	0x3d63ad14	0.055584982
138	0xbd0c96bd	-0.034323443
139	0xbcf719c6	-0.030163657
140	0xbd34c928	-0.04413715
141	0xbb1c9de4	-0.002389782
142	0xbdb8edea	-0.090297535
143	0xbdbd5a5f	-0.092457525
144	0xbb30221d	-0.0026875802
145	0xbd9d0c8e	-0.0766841
146	0xbcef9d6e	-0.029249873
147	0xbde63288	-0.11240107
148	0x3d65046d	0.055912424
149	0x3d078df3	0.033094358
150	0x3da272bf	0.07932042
151	0x3d435cd4	0.04769595
152	0xbcc61803	-0.024181372
153	0x3cb817bf	0.02247226
154	0xbdaaad97	-0.08333891
155	0xbd76e828	-0.060279995
156	0x3ce244d8	0.027620718
157	0x3c9824b6	0.018572193
158	0xbca29f99	-0.019851493
159	0x3cd639aa	0.026150543
160	0xbd8642a6	-0.06555681
161	0xbda36b2b	-0.07979425
162	0xbd2bf2af	-0.041979488
163	0x3d6f4a72	0.058420606
164	0x3c569f3e	0.01309949
165	0xbd1fee64	-0.039045706
166	0xbd8ab27d	-0.06772325
167	0x3de28113	0.11059775
168	0x3d79c70b	0.060980838
169	0xb9c4fb27	-0.00037571156
170	0xbd45874d	-0.048224736
171	0xbd8deca3	-0.069299005
172	0xbc8301e6	-0.015992116
173	0x3dcf8a56	0.10133807
174	0xbdd62d61	-0.10457874
175	0xbd204cb7	-0.03913566
176	0x3ce5d23e	0.028054353
177	0x3dc74596	0.09730069
178	0xbd81e3e6	-0.06342296
179	0x3dcdf969	0.10057337
180	0x3b9466fa	0.0045288773
181	0xbd1d9e4e	-0.03848105
182	0xbcf1c91b	-0.02951484
183	0xbd541a25	-0.051782746
184	0xbdae2127	-0.08502417
185	0xbda73abd	-0.081655
186	0xbd71dc30	-0.059047878
187	0x3d859b3e	0.06523751
188	0xbd38cafb	-0.045115452
189	0x3dd84bb3	0.105613135
190	0xbd57df6b	-0.052703302
191	0xbcd5674d	-0.026050234
192	0xbd3874c4	-0.04503323
193	0x3d951e2a	0.07281144
194	0x3d64b930	0.05584067
195	0xbcd02e33	-0.025412655
196	0x3d96d383	0.073645614
197	0x3d1645aa	0.03668753
198	0x3d41621b	0.0472127
199	0xbd219aca	-0.03945426
200	0xbd7f4a56	-0.06232675
201	0xbbf6ba91	-0.0075295647
202	0xbcf6369e	-0.03005534
203	0xbd3bfcf2	-0.045895524
204	0x3c035880	0.0080167055
205	0x3c3aa8d6	0.011392793
206	0x3d980d2b	0.074243866
207	0xbdaf3788	-0.085555136
208	0xbdb22cf5	-0.08699981
209	0xbd8bd28d	-0.06827269
210	0x3d6f54a1	0.058430318
211	0xbb36f6cb	-0.0027918096
212	0x3d719dec	0.058988497
213	0x3d8385f9	0.06422038
214	0x3d9fc6dd	0.07801602
215	0x39e55877	0.00043744195
216	0x3da74115	0.0816671
217	0xbd6241e0	-0.055238605
218	0xbda4942c	-0.08036074
219	0x3da5761a	0.08079167
220	0x3d88cdaf	0.06679856
221	0x3d3fde7d	0.04684304
222	0x3c9e57dc	0.019329004
223	0x3b29ea9e	0.0025927196
224	0xbcddfc53	-0.027097857
225	0x3c389d3b	0.011267955
226	0xbdd0b40e	-0.10190593
227	0xbda53494	-0.08066669
228	0xbcf57f60	-0.029967964
229	0x3dde0b5e	0.10842012
230	0xbbb144f3	-0.0054098307
231	0x3dc98367	0.09839516
232	0xbd2a43c9	-0.04156855
233	0x3daf7266	0.08566742
234	0xbd8b85bc	-0.06812617
235	0xbd822b5d	-0.06355927
236	0x3d184c82	0.03718234
237	0xbcbe7036	-0.023246866
238	0x3dd89b10	0.10576451
239	0xbd2f3836	-0.042778216
240	0x3c64997b	0.013952608
241	0x3d128661	0.035772685
242	0x3dbf8480	0.09351444
243	0x3d4f6eb9	0.050642703
244	0xbbaeb94c	-0.0053321477
245	0xbc40c648	-0.011766024
246	0xbd9badc2	-0.07601501
247	0x3d821b2e	0.0635284
248	0xbd12953a	-0.035786845
249	0xbd61b90c	-0.055108115
250	0x3d9bc375	0.0760564
251	0xbc88bf40	-0.016692758
252	0xbd924e42	-0.07143833
253	0xbdd4cd57	-0.10390728
254	0xbdac03c2	-0.08399154
255	0x3c7c62c4	0.015404407

bias f4 [32]
0	0xbda7ac4c	-0.0818716
1	0x3c52dd7b	0.012870188
2	0xbd90055a	-0.07032271
3	0x3cf149f3	0.029454207
4	0x3d3d3b75	0.04619928
5	0x3dc5ad1b	0.09652158
6	0x3d847faa	0.064696625
7	0x3d541feb	0.05178825
8	0xbc82623f	-0.015915988
9	0xbd1354db	-0.035969596
10	0x3c6d87d1	0.014497713
11	0x3d5d47e1	0.054023627
12	0x3dcf8c40	0.101341724
13	0x3c81540b	0.015787145
14	0x3d10944c	0.035297677
15	0x3d71ddf7	0.059049573
16	0xbd86fa5d	-0.06590722
17	0xbd76880e	-0.060188346
18	0x3d784b16	0.060618483
19	0xbdd412a3	-0.10355117
20	0x3c72adaa	0.014811913
21	0xbcfa5894	-0.030559815
22	0xbd843e4f	-0.06457197
23	0x3dd1fffb	0.102539025
24	0xbb287e78	-0.0025710147
25	0x3c9d2870	0.019184321
26	0x3c42c2e4	0.011887286
27	0xbdd218de	-0.10258649
28	0x3c8652ca	0.016396899
29	0xbda56b68	-0.08077127
30	0x3dcd7f0e	0.100339994
31	0x3d185b0e	0.03719621

weight f4 [32]
0	0x3f81c010	1.0136738
1	0x3f800321	1.0000955
2	0x3f80521b	1.0025057
3	0x3f804d67	1.0023621
4	0x3f7f54f2	0.9973899
5	0x3f818020	1.0117226
6	0x3f7f118f	0.9963617
7	0x3f7e324e	0.9929551
8	0x3f7fdaa8	0.9994302
9	0x3f80c7dc	1.0060992
10	0x3f7feecc	0.9997375
11	0x3f7df550	0.9920244
12	0x3f8146a8	1.0099688
13	0x3f814ae1	1.0100976
14	0x3f805f40	1.0029068
15	0x3f7e1247	0.9924664
16	0x3f803d19	1.0018646
17	0x3f80d32f	1.0064448
18	0x3f801238	1.000556
19	0x3f7da70c	0.9908302
20	0x3f80b33f	1.0054702
21	0x3f801229	1.0005542
22	0x3f80223b	1.0010446
23	0x3f7e8e7f	0.9943618
24	0x3f8088d9	1.0041763
25	0x3f7eb87a	0.9950024
26	0x3f7ea087	0.99463695
27	0x3f7b1e23	0.9809286
28	0x3f7e5ab0	0.9935713
29	0x3f8165fb	1.0109247
30	0x3f807b1b	1.0037569
31	0x3f7cf1b9	0.9880634

bias f4 [32]
0	0x3b6d6e25	0.0036228981
1	0x3ba4b3f7	0.0050263363
2	0x3b25b690	0.0025285818
3	0x3c2e837a	0.010651464
4	0x3c7bbe74	0.015365232
5	0x3bcd6e44	0.006269248
6	0x3b17ed96	0.0023182384
7	0x3c06ce1f	0.008227854
8	0x3bc826d1	0.006108143
9	0x3c24d82a	0.010061303
10	0xbb98ed75	-0.004666979
11	0xb9b9715a	-0.00035370403
12	0x3b07a8d0	0.0020699985
13	0x3b900e1b	0.0043962128
14	0x3c986444	0.018602498
15	0x3cad05d5	0.021120945
16	0x3984c421	0.0002532313
17	0x3c9327ce	0.017963316
18	0x39c3a801	0.0003731847
19	0xbb7e3d86	-0.0038793995
20	0x3b25bb12	0.0025288505
21	0x3ca7e0c2	0.020492915
22	0x3b4a29e2	0.0030847718
23	0x3b367c08	0.0027844924
24	0x3c7f6c7a	0.015589828
25	0x3be79613	0.007067451
26	0x3c776327	0.015099323
27	0x3cae08d9	0.021244453
28	0x39aef23d	0.00033368348
29	0x3bb79ad2	0.005603173
30	0x3c372ab7	0.011179618
31	0x3c07850a	0.008271465

running_mean f4 [32]
0	0xbd72241e	-0.059116475
1	0xbc5d707a	-0.013515586
2	0xbd977ff3	-0.07397451
3	0x3d641c6f	0.05569118
4	0x3cb99230	0.022652715
5	0x3d640d9b	0.055677038
6	0x3d8dc56e	0.06922422
7	0x3d63011a	0.055420972
8	0xbd196586	-0.037450336
9	0xbd80dd9b	-0.06292268
10	0x3c1f4c6e	0.009722812
11	0x3d9a92c4	0.075475246
12	0x3dafdb17	0.0858671
13	0x3d366979	0.04453418
14	0x3d51531b	0.051104646
15	0x3d7242b3	0.05914564
16	0xbda6c0e6	-0.08142261
17	0xbd8c03d8	-0.06836671
18	0x3d490eae	0.049086265
19	0xbd8f10ac	-0.06985602
20	0x3d64f363	0.055896174
21	0xb925d8ba	-0.00015816363
22	0xbda4600b	-0.08026131
23	0x3d8e0695	0.06934849
24	0xbc47b313	-0.012188691
25	0x3d4d56a7	0.050131466
26	0x3c5cab2c	0.013468545
27	0xbdd81842	-0.10551502
28	0x3d8c2ae1	0.06844116
29	0xbdf5ba59	-0.119984336
30	0x3e144431	0.14479138
31	0x3cf179b7	0.029476983

running_var f4 [32]
0	0x3b6ed4f8	0.0036442857
1	0x3b06d438	0.002057327
2	0x3b56554f	0.0032704656
3	0x3b372f7a	0.0027951882
4	0x3ada6e95	0.0016665036
5	0x3b7db821	0.0038714486
6	0x3ada1fcf	0.001664156
7	0x3a97076d	0.0011522599
8	0x3aef80c0	0.0018272623
9	0x3b1c85e2	0.0023883511
10	0x3ac6a531	0.0015155432
11	0x3b131beb	0.002244706
12	0x3ad388bf	0.0016138776
13	0x3b209f67	0.0024509074
14	0x3aea2219	0.0017862945
15	0x3aa21121	0.0012364724
16	0x3aee1cc7	0.0018166535
17	0x3ae1f73f	0.0017239823
18	0x3b0cdbdc	0.002149335
19	0x3b4bcc4c	0.0031097112
20	0x3b62dcfd	0.0034616583
21	0x3b688af3	0.003548321
22	0x3af402b7	0.0018616532
23	0x3b0b1250	0.0021220632
24	0x3af0d78f	0.0018374788
25	0x3b272f22	0.002551027
26	0x3b5ff85e	0.0034175138
27	0x3a9548fc	0.0011389549
28	0x3b814bad	0.003945789
29	0x3b3b937d	0.0028621845
30	0x3b785fa0	0.0037898794
31	0x3b1dbe5b	0.002406976

weight f4 [32, 32, 3, 3]
0	0x3d4c770d	0.049918223
1	0x3d349e7d	0.04409646
2	0xbd698f87	-0.057021644
3	0x3d67239e	0.05643045
4	0x3d106ead	0.0352618
5	0xbd32a9d5	-0.043618996
6	0x3d45ff52	0.048339196
7	0x3d295f84	0.041350856
8	0xbbfeb154	-0.007772604
9	0x3d5c983e	0.053856127
10	0x3cd38d64	0.025824256
11	0x3d1ff0a4	0.039047852
12	0x3d230bf5	0.039806325
13	0x3d37e59f	0.044896718
14	0xbd8000eb	-0.06250175
15	0xbba56f3a	-0.0050486596
16	0xbd324c97	-0.043530073
17	0x3ac0e62c	0.0014717034
18	0xbd151060	-0.03639257
19	0xbb491862	-0.00306847
20	0xbd295e5e	-0.04134976
21	0x3d7d8ef5	0.061903913
22	0x3cf802d8	0.030274794
23	0xbd218c7d	-0.03944062
24	0x3b4fada0	0.0031689182
25	0xbd65dbab	-0.056117695
26	0x3ce4f80d	0.027950311
27	0x3d308b51	0.043101612
28	0x3c9ee739	0.019397365
29	0x3d1bd92d	0.03804891
30	0x3d328974	0.043588117
31	0xbd57288b	-0.0525289
32	0x3d1c55dc	0.03816782
33	0xbc5e8c27	-0.01358322
34	0xbc368071	-0.011139021
35	0xbd0e752a	-0.034779705
36	0xbca1eea9	-0.019767122
37	0xbc19369a	-0.009351397
38	0xbcf2913d	-0.02961027
39	0x3bfeb714	0.0077732895
40	0xbcc6903b	-0.024238696
41	0xbd49808f	-0.04919487
42	0x3ca12156	0.019669216
43	0xbc51bff1	-0.01280211
44	0xbcf5d78f	-0.030010013
45	0xba93da1b	-0.001128021
46	0x3c0d9c6a	0.008643249
47	0x3d268eb5	0.04066344
48	0x3be3eb95	0.006955574
49	0x3d8aa55a	0.067698196
50	0xbcd77beb	-0.026304206
51	0x3cbda8fd	0.023151869
52	0xbc8d04e7	-0.017214252
53	0x3c7d8c8a	0.015475402
54	0x3d5a4e2c	0.053297207
55	0xbc0ce182	-0.008598687
56	0x3cb59499	0.022165583
57	0xbce406ae	-0.027835216
58	0x3d765c9c	0.060146913
59	0xbd233644	-0.039846674
60	0xbd53ef4b	-0.05174188
61	0x3d11aa1a	0.035562612
62	0xbd158772	-0.036506124
63	0xbd1592de	-0.036517017
64	0xbd5d0aab	-0.053965252
65	0xbc0a39b9	-0.008436614
66	0xbc803b9c	-0.015653424
67	0xbce87b89	-0.028379219
68	0x3c85ff8a	0.016357202
69	0x3cb9bbe8	0.022672608
70	0x3d3e546d	0.046467233
71	0xbd55fc69	-0.05224267
72	0xbceabb39	-0.028653728
73	0xbd2a2dc0	-0.041547537
74	0x3baa46a7	0.0051964107
75	0xbd2586f4	-0.040411904
76	0x3d31e885	0.04343464
77	0x39e268af	0.00043184074
78	0xbd79273a	-0.060828425
79	0xbd14003b	-0.036133032
80	0x3cfe5646	0.031046998
81	0xbc290a7b	-0.01031744
82	0x3d2918d2	0.041283436
83	0xbca3b5ca	-0.019984145
84	0x3d105dcb	0.035245698
85	0x3d2361f2	0.03988833
86	0x3b9ba5a4	0.0047499705
87	0x3d34a3e6	0.04410162
88	0x3d1f114c	0.038834855
89	0x3bbafdb6	0.005706514
90	0xbd80b305	-0.06284145
91	0x3d3d9a61	0.046289805
92	0x3c84f4de	0.016230043
93	0x3d2fbce7	0.04290476
94	0x3c1e3f42	0.0096586365
95	0x3cb1c093	0.021698272
96	0xbd2cb213	-0.042162012
97	0xbd76151b	-0.06007872
98	0xbccb3db0	-0.024809688
99	0x3cdaf883	0.026729828
100	0xbc5e12aa	-0.013554255
101	0xbc88f572	-0.0167186
102	0x3c3c115e	0.01147875
103	0x3beff3d4	0.0073227677
104	0xbd78451b	-0.06061278
105	0xbd638613	-0.055547785
106	0x3c90d99a	0.017681886
107	0x3c81b3b3	0.015832758
108	0x3d0afdb9	0.033933375
109	0x3d076efc	0.033064827
110	0x3d67b6cf	0.056570824
111	0xbd2c6b04	-0.042094246
112	0x3ca3eab9	0.020009385
113	0x3a43e398	0.0007472574
114	0xbd0b34f3	-0.033986043
115	0x3c80bd58	0.015715286
116	0xbd38950a	-0.04506401
117	0x3cb48914	0.02203802
118	0x3aa1df72	0.0012349917
119	0x3d1cbc54	0.03826554
120	0xbccff113	-0.025383508
121	0x3d6b714b	0.05748109
122	0xbbc35979	-0.0059615937
123	0xbc8d8886	-0.017277014
124	0x3cad7e18	0.02117829
125	0x3cab97ec	0.020946465
126	0x3d34eacb	0.04416923
127	0xbc22e890	-0.0099431425
128	0x3d065d89	0.032804046
129	0xbd057b16	-0.032588087
130	0xbd0867d5	-0.033302147
131	0x3d6b39b4	0.057428077
132	0xbca2f3bd	-0.019891614
133	0xbcdb568b	-0.026774665
134	0xbd51ace4	-0.051190272
135	0xbc0ec5ca	-0.008714149
136	0xbc26d8f6	-0.010183563
137	0x3d1b93cc	0.037982747
138	0x3cfd4cb2	0.03092036
139	0x3c0b77c1	0.008512438
140	0xbd91714c	-0.07101688
141	0xbd82527d	-0.0636339
142	0xbd62e488	-0.055393726
143	0xbc2db4f5	-0.010602226
144	0xbd344f5b	-0.04402099
145	0x3d0c8ddd	0.03431498
146	0xbd5af1bc	-0.053453192
147	0x3cbcff0f	0.02307084
148	0xbc1b0e15	-0.009463807
149	0xbd8e3dfe	-0.06945418
150	0xbd00d249	-0.031450544
151	0x3c71705c	0.014736261
152	0x3c5cd763	0.013479087
153	0x3d6079d1	0.054803673
154	0xbd6ba3e2	-0.057529338
155	0x3caaab83	0.020833736
156	0xbbb7dd0c	-0.0056110676
157	0xbaaeb506	-0.0013329096
158	0xbcb2206a	-0.021743972
159	0x3abbf9e6	0.0014341443
160	0x3a9b3767	0.0011842073
161	0x3c398742	0.011323752
162	0x3c40ca5a	0.011766994
163	0xbcd0b035	-0.025474647
164	0xbd5136e2	-0.05107773
165	0xbd69c8e7	-0.05707636
166	0xbd26ba83	-0.040705215
167	0x3d43d866	0.047813796
168	0xbd1deabe	-0.038553946
169	0x3c9ebc34	0.019376852
170	0xbc074ca5	-0.00825802
171	0x3d124d7d	0.03571843
172	0x3d0856df	0.03328597
173	0xbd7157be	-0.058921568
174	0x3bb99e00	0.005664587
175	0x3bd7339d	0.006567432
176	0xbd47cb9f	-0.048778173
177	0x3d1242ac	0.035708115
178	0x3918414e	0.00014520178
179	0x3d18cd42	0.037305124
180	0x3c8ec792	0.017429147
181	0xbd0d8073	-0.034546327
182	0x3ccc3871	0.024929257
183	0xbd31fbf2	-0.043453164
184	0x3d495c6a	0.0491604
185	0xbd116128	-0.035493046
186	0xba84c2c4	-0.0010128845
187	0xba4cd13f	-0.00078131625
188	0x3d3a8871	0.045540277
189	0x3d16a095	0.036774237
190	0xbab62439	-0.0013896293
191	0xbd43f3ab	-0.0478398
192	0x3d46631f	0.048434373
193	0x3d717b97	0.058955755
194	0xbc7268e6	-0.014795518
195	0xbbba0a54	-0.0056775007
196	0xbcaf65db	-0.021410873
197	0xbc216cbc	-0.009852584
198	0x3d1925ba	0.037389494
199	0xbd13a037	-0.036041465
200	0xbc2e9b8b	-0.0106572015
201	0x3c88ad6b	0.016684255
202	0xbd332835	-0.043739516
203	0x3d56df89	0.052459273
204	0x3d3ad82d	0.045616318
205	0x3cf4d36f	0.029885976
206	0xbcd1472d	-0.025546635
207	0xbccd1b00	-0.025037289
208	0x3d1c0ac1	0.038096193
209	0xbc6d95c2	-0.014501037
210	0x3cf5fca5	0.030027697
211	0x3d539841	0.051658873
212	0xbd352a17	-0.044229593
213	0x3d497f7c	0.049193844
214	0xbd5bad9d	-0.053632367
215	0xbcf47164	-0.029839225
216	0xbbfaef49	-0.0076579195
217	0xbc3f6676	-0.011682143
218	0xbc9e2d4f	-0.019308714
219	0xbd0887ce	-0.03333264
220	0x3cb077ce	0.021541502
221	0xbd1e2cb9	-0.03861687
222	0xbd3cc3e8	-0.04608527
223	0x3bbe63f4	0.005810255
224	0x3d383ea0	0.0449816
225	0x3d3e8e15	0.04652222
226	0xbd5397b5	-0.05165835
227	0x3cb99323	0.022653168
228	0x3d458fce	0.048232846
229	0xbc86a624	-0.016436644
230	0xbaa7fb6f	-0.0012816022
231	0x3cccf14f	0.025017409
232	0x3b0e83ea	0.0021746107
233	0xb9fa1c18	-0.00047704647
234	0x3d46f567	0.048573878
235	0x3b791bd9	0.0038010983
236	0x3bdfa3cc	0.006824946
237	0xbc7244d6	-0.01478692
238	0xbd319c1b	-0.043361764
239	0x3d4f5e57	0.05062708
240	0x3d1a05d6	0.03760322
241	0x3d9b40ab	0.07580694
242	0x3d176198	0.036958307
243	0xbc04cb13	-0.008105057
244	0x3d0a85e0	0.03381908
245	0xbd8305a8	-0.06397563
246	0x3d69f3bc	0.05711721
247	0x3cc1dbe1	0.023664417
248	0x3d5e3672	0.05425114
249	0xbc565a1e	-0.013083009
250	0xbd01234c	-0.031527802
251	0xbc976ff8	-0.018486008
252	0x3c3a62e7	0.011376119
253	0xbd29901d	-0.041397203
254	0xbcdbfe06	-0.026854526
255	0xbc462e76	-0.012096038
